model.pkl (torch, 481716 bytes, 6 tensors)

weight f4 [200, 78]
000000 3f c4 f1 3d 7c 89 ba 3c 4f 23 24 bd 69 47 03 3d
       0.11805009 0.022770636 -0.040072735 0.032050524
000010 b1 dd 90 3d 56 01 54 bd 10 05 8b bd 60 ce 9e 3d
       0.07073534 -0.051759087 -0.06788075 0.07754207
000020 25 e9 e5 bd 4a 96 60 bd 82 be 51 bd 48 c4 84 bd
       -0.112261094 -0.054830827 -0.051207073 -0.0648275
000030 dc 14 80 3d bf ae 8d 3d 88 25 c6 bc a0 dc 90 bd
       0.062539786 0.06918096 -0.024187818 -0.07073331
000040 6f ae fb bc 2b 8e 7b 3c ad 48 a6 3d 5b 09 4e 3d
       -0.030722825 0.01535372 0.081193306 0.05030189
000050 c8 35 e9 3b 24 9c 75 bc 4a 5d 9a bd 29 19 88 3c
       0.007117007 -0.01499084 -0.07537325 0.01661356
000060 47 af 90 bc 44 5c e4 bd 17 d5 aa bd bc 09 8f bd
       -0.017661704 -0.11150411 -0.08341425 -0.069842786
000070 33 08 a4 3c 50 88 28 bc 2b 8f 7d 3d 09 60 4f bd
       0.020023441 -0.010286406 0.061904114 -0.050628696
000080 dd dc fe 3d 79 e4 0c 3d 21 b6 ab 3d 55 8f a6 bd
       0.1244447 0.034397576 0.08384348 -0.08132807
000090 22 89 06 be 43 0c f3 bd 11 e8 90 bd 9f 08 5e bd
       -0.1313825 -0.11867573 -0.07075513 -0.05420744
0000a0 b4 8c e4 bc f0 aa 7a 3d 36 cc 83 bd ac 83 5f 3d
       -0.027899124 0.061198175 -0.064354345 0.05456893
0000b0 e9 9c 03 be 34 b8 3d bd f9 61 13 be 95 09 c3 bd
       -0.12852825 -0.046318248 -0.14392842 -0.09523312
0000c0 f9 fc 11 bd c3 ed da bb 2b 3b 95 3d c3 3c 00 3e
       -0.035641644 -0.0066811754 0.07286676 0.12523179
0000d0 2a a9 c0 bc 71 98 21 bd 85 27 ef 3d 01 f7 a7 3d
       -0.023518164 -0.03945202 0.116774596 0.08201409
0000e0 ff 70 e2 bc 9f b3 08 3d 06 82 e3 bc a4 53 91 bd
       -0.027641771 0.033374425 -0.027771961 -0.07096031
0000f0 7b 86 90 3d 8f 34 03 3e 53 c4 d0 bd 16 e3 6f 3c
       0.070569 0.12813018 -0.10193696 0.014641544
000100 f3 89 8c bd fb 10 81 3d 3b a6 85 3d d1 89 d4 bd
       -0.06862249 0.06302067 0.065258466 -0.10377849
000110 6b 7d a0 3d e9 78 dc bd 26 b0 00 3d 36 3b cf 3d
       0.078364216 -0.10765249 0.03141799 0.101187155
000120 8b 9c ea bd 56 d7 a5 bc f8 a2 78 bd cb 76 57 bd
       -0.114556395 -0.020244282 -0.060702294 -0.052603524
000130 9a 2b 04 bd 67 4d b8 bc 84 51 93 bd 53 87 19 bd
       -0.032268144 -0.022497846 -0.07193282 -0.03748257
000140 32 a5 13 bd 6b ac d0 bd 02 f3 6b bd 2c 7f 7a 3d
       -0.036046214 -0.10189136 -0.057604797 0.061156437
000150 f0 50 fc bd 3e 64 18 bc b1 14 88 bd ce 63 50 bd
       -0.12320125 -0.009301243 -0.066445716 -0.05087643
000160 54 64 a7 bd 86 7a 13 be 01 5d 85 3c 8f 98 78 bc
       -0.08173433 -0.14402208 0.0162797 -0.015173092
000170 95 fc ba 3d 24 49 19 3e 91 24 2a 3e 31 cc cb 3d
       0.091302074 0.14969307 0.16615511 0.09951056
000180 1a da 6b ba 42 39 2d bd 79 66 61 bd 5c 28 0a be
       -0.0008997038 -0.042290933 -0.055029366 -0.13491958
000190 a1 f9 09 3d 0a 78 ed 3d a0 84 db 3d cc e4 b0 bc
       0.03368533 0.11595161 0.107186556 -0.021593474
0001a0 75 be c2 3d 63 ae ae 3c 2d f0 fa 3c 81 57 c5 3b
       0.09508983 0.021323388 0.030632103 0.006022394
0001b0 8a 34 4c 3d f4 36 5a bd 17 f3 84 3d 6e 7a cc bd
       0.049854793 -0.053275064 0.06491678 -0.09984289
0001c0 9f 05 c6 3d aa 96 c7 3d 91 6c 0c be 6c c3 d3 bd
       0.09669041 0.09745534 -0.1371329 -0.10340008
0001d0 74 ec e6 bc f5 2b 0b be 8e 63 4b be ff 10 14 3d
       -0.028188922 -0.13590987 -0.19862196 0.03614902
0001e0 71 af 4b 3d 5b b9 85 bc a3 3e 84 bd 95 44 3e 3d
       0.04972786 -0.016323736 -0.064572595 0.046452124
0001f0 25 bd fa bd 2c a7 ea bd f4 ca 89 bd e7 5b 0b 3e
       -0.12243108 -0.11457667 -0.06728163 0.13609277
000200 03 cb bc 3d 0c 12 4d 3d a5 49 74 bd a0 20 73 bd
       0.09218409 0.05006604 -0.059640545 -0.059357285
000210 6d ca 74 3d 8d 38 f9 3d c7 eb bd bc d8 ba 09 3e
       0.05976336 0.12168989 -0.023183716 0.13450181
000220 ef e5 10 bc fa 8c 81 bd c5 a2 da 3d 50 55 1a 3b
       -0.008843883 -0.06325717 0.10675577 0.0023549385
000230 02 40 bf bd 80 61 21 bd 28 9b de bd 5f e2 f2 bd
       -0.093383804 -0.039399624 -0.108694375 -0.11859583
000240 69 d2 84 bb f7 dc ee bc 00 56 01 be 35 f6 51 3d
       -0.004053403 -0.029158099 -0.12630463 0.051260192
000250 4a 92 fb 3d 1f c6 91 bd 4c 22 e4 3d e1 d5 8e 3d
       0.12283762 -0.07117867 0.11139354 0.06974388
000260 ed ed 65 bd 4c 5e c0 bb 61 59 d1 3d a0 bb d2 3d
       -0.056135107 -0.005870616 0.10222126 0.10289693
000270 4b 56 e3 3c ee ec e0 3d 9c 77 d2 3d 1e 5a 3c bd
       0.027751109 0.10982691 0.1027672 -0.04598438
000280 cc 41 ab 3b 52 94 6c be 3b 2c 25 be 7e 4e 82 bd
       0.0052263495 -0.23103455 -0.16130154 -0.063626274
000290 31 03 08 be 9c 98 a6 3d 54 77 0a 3e a9 58 1a 3c
       -0.13282467 0.08134577 0.13522083 0.009420552
0002a0 88 36 25 3d 09 f3 df 3c cc 06 3a be 24 c9 4a bd
       0.04033521 0.027337568 -0.18166655 -0.04950823
0002b0 25 b4 46 3d b6 be 89 3d d4 e1 b9 3d 94 7b 8a 3d
       0.048511643 0.06725828 0.090762764 0.06761852
0002c0 cf f2 e9 3c 48 1f c7 3d f9 49 93 3c 0d 6f 8b bd
       0.028558163 0.09722763 0.017979609 -0.06808291
0002d0 25 03 41 bd 8e 48 27 3e 8e 63 94 3d ba 1f 56 3c
       -0.04712214 0.16336271 0.07245551 0.013069088
0002e0 ad 70 8c bd 86 54 a3 3d 46 73 eb bb d9 4f d3 3d
       -0.06857429 0.07975106 -0.0071853725 0.10317964
0002f0 2e de 8a bd 02 46 3b bd 40 b6 c7 3c 35 78 6d 3d
       -0.06780659 -0.04572106 0.024378896 0.057975966
000300 33 65 84 3c 10 a9 9b bc 7e b9 99 3b f8 bc 17 bd
       0.016161537 -0.019001514 0.004691302 -0.03704545
000310 bb e9 ce bd 35 ed 38 3d 7f af 49 bc 94 15 27 3d
       -0.10103174 0.045148093 -0.012309908 0.040792063
000320 94 ca 81 3d b7 d8 95 bc af 73 d2 3b 59 68 57 bd
       0.06337467 -0.018291814 0.006422482 -0.052589748
000330 3b 8a ef 3d ee 8b 34 3d 3e dd ab 3c 30 d3 04 3e
       0.11696287 0.04407876 0.02097952 0.12971187
000340 25 46 66 be 93 e7 3b bc fd ae 20 bd d7 d7 c8 3c
       -0.22487696 -0.011468786 -0.03922938 0.024516983
000350 ee ab 4a 3d 2e 06 9e bc 94 3b 48 bd 86 3d a8 3d
       0.04948037 -0.019290056 -0.048884943 0.0821486
000360 63 b1 b8 bc 09 6e 69 3d 68 7e c9 3d d1 88 20 3e
       -0.022545522 0.056989703 0.09838563 0.15677191
000370 fa e0 67 3d 62 41 3b bd 0a 8e ac 3d b3 bb 75 bd
       0.05661104 -0.04571665 0.08425529 -0.059993457
000380 b6 0a 19 3e 14 99 3a 3c ee 28 82 bc cd 31 8f 3d
       0.14945492 0.011389036 -0.015888657 0.069919206
000390 e7 7e 89 bb 91 ee 24 be a9 1e 85 3d 10 f3 78 bd
       -0.004196036 -0.16106631 0.064999886 -0.060778677
0003a0 39 32 c3 3d ab 3e 8c 3d dc 32 3d be a3 fb a1 bd
       0.095310636 0.068478905 -0.18476433 -0.07909324
0003b0 f0 12 c6 bd 9b 6e 9d bd 09 8d 51 3d 58 3a 15 bd
       -0.09671581 -0.07687112 0.051159892 -0.036432594
0003c0 ed 78 80 bd fe 26 07 3d 74 2d 06 3c 33 53 31 be
       -0.06273065 0.03299617 0.008189548 -0.17316894
0003d0 4c b3 11 3e 2a b5 dc bc aa 71 2c be 88 ca 21 3e
       0.14228553 -0.026941855 -0.16840234 0.15799916
0003e0 83 64 12 3e 15 97 a0 bd b0 20 3a 3e dd f0 34 3e
       0.14296155 -0.078413166 0.18176532 0.17670007
0003f0 27 cb 71 3d 96 f0 a0 3d a9 ba e2 3d a8 39 59 be
       0.05903163 0.07858388 0.11070759 -0.212134

bias f4 [200]
000000 f9 be b3 3d 0f e9 03 3d 93 76 39 be 9a 1e 0c be
       0.087766595 0.032204684 -0.18111639 -0.13683549
000010 20 ad 13 bb 5d d0 0f 3e 71 80 c8 3d 2f 40 95 3d
       -0.002253361 0.14044328 0.09790123 0.07287633
000020 3a 8b 86 3e 0e 54 c0 bd bd bb ee 3b 2b b6 8b bc
       0.26278096 -0.09391032 0.0072855637 -0.017054638
000030 6c d1 b2 bd f3 bc 10 be 30 01 ee bd 55 b8 00 3e
       -0.0873135 -0.14134578 -0.1162132 0.12570317
000040 8a 75 56 be 53 99 42 3d 85 42 a0 bd 5a 72 38 bd
       -0.20943275 0.047509503 -0.078251876 -0.04503093
000050 09 6d 1a bd df 1f 62 be c4 ab 36 3e 4b 29 c7 3e
       -0.03770164 -0.2208247 0.17838961 0.38898692
000060 af fe e0 bd 99 4b a3 bd 86 4f c7 bb f5 4a c0 3e
       -0.10986077 -0.079734035 -0.006082478 0.37557188
000070 a1 35 60 3b df 73 21 be 3d 18 78 bd 9c 9e 38 bc
       0.0034211653 -0.15766858 -0.06056999 -0.011268284
000080 35 8c 64 be 80 61 a1 3d 18 d5 e0 bd 26 c8 64 bd
       -0.2231911 0.07879925 -0.109781444 -0.05585494
000090 2f 05 57 3e 44 44 b1 bd fc 92 81 3d bc 6d b9 3d
       0.20998071 -0.08655599 0.06326863 0.09054133
0000a0 97 66 df bd a9 53 26 be 34 88 9a be eb ac 99 bd
       -0.10908239 -0.16242851 -0.3018204 -0.075036846
0000b0 70 01 20 3d ff 5c 0d 3e 6b 05 51 bd cf 7a ee bd
       0.03906387 0.13805006 -0.051030558 -0.11644518
0000c0 a3 67 e0 ba 4a e0 72 bd bf c6 13 3e 5e db 5e bd
       -0.001712073 -0.05929593 0.14431284 -0.054408424
0000d0 ee 01 6c bd a1 b0 7a be ce 15 2f 3c 16 d1 05 3d
       -0.057619028 -0.24481441 0.010686351 0.032670103
0000e0 6b 31 c1 3d a8 e3 87 bc 6f e6 a6 be f5 4f ac bc
       0.09433254 -0.016588047 -0.32597682 -0.02103422
0000f0 40 15 25 bd 89 47 68 3d 74 71 a4 bd 91 4b 88 3e
       -0.04030347 0.056708846 -0.08029452 0.26620153
000100 30 c6 c2 bb cd e7 32 be cf f9 93 3d 82 1a c9 bd
       -0.005944036 -0.17471237 0.072253816 -0.09819509
000110 90 1e 88 3b 73 ed e5 be 7c 42 df bd f1 d6 a5 3b
       0.004154034 -0.44907722 -0.10901353 0.0050610234
000120 ef 4a a5 bd 3d 84 90 bc 4a f9 37 bd 5d da bf 3d
       -0.08070933 -0.017641181 -0.044915475 0.09367821
000130 c5 21 8a bd b2 17 84 bd fc de 0c 3d 27 56 b6 bd
       -0.06744722 -0.06449832 0.034392342 -0.08903151
000140 cc e4 39 be bb 6f 89 3e b4 5b 74 3e 2c 17 16 be
       -0.18153685 0.26843056 0.23863107 -0.14657277
000150 44 22 57 be b2 a5 37 bb e1 d4 02 3e 40 fd ef 3a
       -0.21009165 -0.0028022346 0.1277652 0.0018309727
000160 0d 2b ac bd 38 43 2c 3d ba f5 a8 3d df 5e ec 3d
       -0.08406649 0.042056292 0.082499936 0.11541533
000170 d1 3d 1a be 2c 36 51 bd 9a 5f 20 3d 59 6b cc bd
       -0.15062644 -0.051077053 0.039153673 -0.099814124
000180 e4 19 96 bc 31 84 2b be 14 a6 15 be 04 58 7f 3d
       -0.018322892 -0.16749646 -0.14614135 0.062339798
000190 69 0c 8f bd bb 94 9f be ed d3 cd 3c 20 d9 0c 3e
       -0.06984789 -0.3116816 0.025125468 0.13754702
0001a0 a5 94 7e be 96 22 83 3c 56 32 d7 bd f7 8b 5b 3c
       -0.24861391 0.016007703 -0.10507648 0.013400069
0001b0 11 c2 07 be 6c 1f b4 bd 3d ab 53 3d 9e 4c ba 3d
       -0.13257624 -0.08795056 0.051676977 0.09096645
0001c0 a1 c8 78 be 77 2e b2 3d 2d 9c 02 be 70 63 db 3d
       -0.24295284 0.08700269 -0.12754889 0.107123256
0001d0 86 15 86 bd 88 93 c7 bd c3 62 9f 3b ef 55 a9 3d
       -0.06547074 -0.09744936 0.0048640682 0.08268344
0001e0 90 01 a8 bd b0 eb a6 3c 61 d9 26 be 3b 03 ba be
       -0.08203423 0.020376056 -0.16293861 -0.3633059
0001f0 a8 b2 1b 3e c9 66 d3 bd 6c 8e 50 bc 69 f2 ab bd
       0.1520487 -0.10322339 -0.0127292685 -0.083958454
000200 34 20 b1 3c c0 d4 c8 3d ec 09 96 bd b1 00 5a 3c
       0.021621801 0.09806204 -0.07326111 0.013305829
000210 d3 a4 94 3d b3 90 8a bd ac 48 d1 3d d2 0e 37 be
       0.07258 -0.067658804 0.10218939 -0.17876747
000220 70 1f b4 3c 47 f6 cf 3d a5 b7 bd 3d 4b b9 18 be
       0.021987647 0.101543956 0.09263543 -0.14914434
000230 fe 05 10 be 00 af f0 be de bb ec bd 3f 03 65 3e
       -0.14064786 -0.47008514 -0.1155927 0.2236452
000240 1f 20 be be f4 d2 2f bd 42 aa bf bd ad d1 dc bd
       -0.3713388 -0.04292579 -0.09358646 -0.1078218
000250 de ec d9 bd 0c 7c ea bc bd 23 8a bd d3 1f e3 3d
       -0.10640882 -0.028623603 -0.06745098 0.11090054
000260 fb 6a 88 3e 4e dd 9d be f2 a8 64 be 54 68 25 3e
       0.2664412 -0.30832905 -0.22330073 0.1615308
000270 c2 5b a9 3c cf ee e3 3d 19 99 74 3e 2c eb 01 be
       0.020673636 0.111295335 0.23886527 -0.12687367
000280 b1 10 82 bd 0d d8 e2 3d cd e4 66 3d 2d 11 4e 3d
       -0.0635084 0.11076365 0.056370545 0.05030935
000290 0b cd 7f bb 7a 38 c1 3e 24 d7 e0 bc d6 ee 0b bd
       -0.0039032127 0.377384 -0.027446337 -0.03416332
0002a0 a3 9b 95 3d 61 15 73 bd 18 0a 31 3e ad d2 e6 bb
       0.07305076 -0.05934656 0.17289007 -0.0070441575
0002b0 f7 c2 de bd 0d a3 8a bd 15 99 a9 be 69 ba 83 bd
       -0.1087703 -0.06769381 -0.33124605 -0.06432039
0002c0 0f 88 56 be fa ef 10 bd 18 cc 43 3c 2a ec 5b 3d
       -0.2095034 -0.03538511 0.011950515 0.05369202
0002d0 91 12 33 bd 00 00 a4 be c7 1e b4 3d 2e dc b6 bd
       -0.04371888 -0.3203125 0.08794933 -0.08928715
0002e0 60 4e f8 bc fc 25 55 3e 84 64 0b be e0 24 ce bd
       -0.03031081 0.20815271 -0.13612562 -0.10065627
0002f0 cb 79 89 3b 7b f0 47 bc a0 5b a4 3c a8 bc 23 3e
       0.004195427 -0.012203331 0.020063221 0.15989935
000300 0d 93 46 bd e4 37 8a 3c 6a cc 92 3c 4c e0 d3 bd
       -0.048480082 0.016872354 0.017919738 -0.103455156
000310 e7 82 8b bd 46 c3 89 be 1f 43 38 3d 27 f1 ab bd
       -0.06812077 -0.26906794 0.044985887 -0.083956055

weight f4 [500, 200]
000000 e6 b9 8d bd 5c cf 5d bd 26 7c c4 3d 56 b2 b0 3d
       -0.06920223 -0.05415283 0.09593992 0.08627765
000010 dd c2 3f bd 96 ef 89 3c ff 2d 5b 3d e6 58 91 bc
       -0.046816695 0.016837876 0.053510662 -0.017742585
000020 1d 78 d6 bc c7 18 d2 bc 4b f7 d1 3d 32 14 4f 3d
       -0.026180321 -0.02564658 0.102522455 0.05055637
000030 95 74 1e 3d bf bd b2 3d 86 64 7b 3d 55 01 c7 bc
       0.0386854 0.087275974 0.061375163 -0.024292627
000040 71 76 0d 3d 90 ce ac 3c 53 f5 79 3d 2f e9 73 3d
       0.034536783 0.02109459 0.061024975 0.059548553
000050 8a ff cd 3b e0 86 3c 3d 2d b4 4e bd 21 a8 ca bd
       0.006286566 0.046027064 -0.050464798 -0.09895349
000060 71 96 85 3d ec 71 3e bd 1d f9 76 bd 95 f8 00 bc
       0.06522835 -0.046495363 -0.060296167 -0.007871767
000070 26 35 20 bd e8 85 07 bd 70 1e a5 3c 6d 71 54 3d
       -0.039113186 -0.033086687 0.020156115 0.051865984
000080 6d 8c d0 3d cd 9f 22 3d 4a 05 73 bd c9 98 83 3d
       0.10183034 0.03970318 -0.059331216 0.06425626
000090 df 2e a0 bd dc 7c 1d bc 27 9d ce 3c 4b 84 28 3d
       -0.0782144 -0.009612288 0.02522142 0.04114179
0000a0 5c bc 68 bd 0d 6a 82 3d 5a c5 ec 3d 7c 9a ff 3a
       -0.05682026 0.06367884 0.11561079 0.0019500996
0000b0 21 5b bf 3d 2f a2 a9 bc 1d 4d 8b 3d 53 8d 08 bc
       0.09343553 -0.020707218 0.068018176 -0.008334476
0000c0 4e a1 6b 3d 67 fa b7 bb 29 e0 ac bd 5d 58 0b bc
       0.05752688 -0.005614567 -0.08441193 -0.008504954
0000d0 2f 3f 24 bd 37 c9 7a 3c 44 e9 30 3b d1 be 45 3d
       -0.04009932 0.015306762 0.0026994506 0.04827768
0000e0 2a 2b 33 bd 68 f6 03 3d d0 8a 53 3c c0 5f 9d 3d
       -0.043742336 0.032217413 0.012911513 0.076842785
0000f0 18 28 5c 3d a8 81 af 3d 95 9d c7 3c 43 39 9f bd
       0.053749174 0.08569652 0.024367133 -0.07774594
000100 3a 20 72 3d 2f 82 a3 bc f5 d7 84 bd 7d 50 8c 3d
       0.059112765 -0.019959537 -0.06486503 0.068512894
000110 24 fe d0 bc 2f 67 f4 3d 3c fd 5b bc 34 8b 3c 3d
       -0.025511809 0.11933743 -0.013427075 0.046031192
000120 35 65 82 3d 4d 66 59 3d e0 1f 5f bd 3a 45 5b 3d
       0.0636696 0.053076077 -0.054473758 0.053532816
000130 7d 9b b8 ba fa 2a f7 bc ad 71 6d bc b3 b9 11 3d
       -0.0014084425 -0.03017186 -0.014492434 0.035577487
000140 c6 d3 e7 3d 87 43 02 bd 95 d7 90 bd 15 45 9b 3d
       0.113196895 -0.03180268 -0.07072369 0.07581536
000150 ab 4e 1e bd c0 15 6f bb 2e 0a 03 bd 5c 51 0c 3d
       -0.038649242 -0.003648147 -0.03199213 0.034257278
000160 24 c4 a0 3c af 3f 22 bd da f9 02 3d c2 be db bc
       0.019624777 -0.039611515 0.03197656 -0.026824359
000170 84 a4 f2 bb f6 7b 0b bd 68 f2 91 bd 59 3b 85 3d
       -0.0074048657 -0.034053765 -0.071263134 0.0650546
000180 ce cc 2f bd 55 7c 2a 3d 8f d1 25 3d 52 65 94 3d
       -0.042919926 0.04162248 0.040483054 0.07245888
000190 23 fc c3 3d 0c 10 bf 3d 8a 66 73 bc cf 3e 89 bc
       0.09569576 0.093292326 -0.01485599 -0.016753582
0001a0 04 2a ca 3c c8 91 6b bd 72 b2 1c bd 3e 21 a1 3c
       0.024678238 -0.057512075 -0.038256116 0.019669171
0001b0 e0 99 18 3d 05 68 d6 bb 98 8c 1b 3d 10 84 db bb
       0.03725612 -0.006543162 0.037975878 -0.0066990927
0001c0 a1 47 5f bc 2e 6d 83 bd d5 b0 8d 3d 36 0c 34 3d
       -0.0136279175 -0.06417309 0.06918494 0.043956958
0001d0 cd d7 ed 3c b9 7f 27 bc 5c 5c 69 3c 05 cc 8a 3d
       0.029033566 -0.010223323 0.014243212 0.06777195
0001e0 3c 16 4b 3d 04 7b ab bd 13 f7 c9 3d 97 71 02 3c
       0.04958175 -0.08373073 0.09861579 0.007961652
0001f0 2f 87 d4 3c 6b 5e c9 bc b5 03 0c 3d d0 0e e4 bb
       0.025943367 -0.024581155 0.034183223 -0.0069597736
000200 5c 87 20 bd d1 19 50 bd 04 d4 1f bd 3c b5 12 bc
       -0.03919159 -0.05080587 -0.039020553 -0.008954342
000210 c3 ec 15 3d 7f fb 44 3d 52 a4 2e bd e7 90 0b 3d
       0.036602747 0.048091408 -0.042637177 0.034073737
000220 04 3d 4b 3c 59 9a 03 bd 6b 97 54 bd 52 f5 15 bd
       0.012404684 -0.03212962 -0.051902216 -0.03661091
000230 5b 17 9e 3d 1f f8 28 3d 64 2b 03 bc 1c 89 c5 bd
       0.077192985 0.04125225 -0.008005951 -0.09645292
000240 60 12 74 3d f6 98 5c 3d 06 0b a3 bc 7e d2 72 3d
       0.059587836 0.053856812 -0.019902717 0.059282772
000250 7d f5 20 3c 11 dd 8d bb 35 9a 54 3d 7a a9 fc 3c
       0.009824154 -0.0043293317 0.051904876 0.030842531
000260 1d 08 8e bd 2d 6a a4 3d e4 83 15 3d ae 10 26 3d
       -0.06935141 0.08028064 0.036502734 0.04054325
000270 7f b7 f4 bc 93 35 04 3c 37 9d 7e bd e5 35 25 3d
       -0.029872654 0.008069414 -0.06216165 0.0403346
000280 c7 3d 15 bd fa b0 94 bc aa 3f 5b 3d 25 11 72 3c
       -0.03643587 -0.018150795 0.05352751 0.014774595
000290 96 c8 43 3c 99 2a 37 bc 98 e0 21 bd 8f 6c 02 3c
       0.011949679 -0.01117959 -0.03952083 0.007960453
0002a0 06 d0 39 3c 42 f0 07 3c 63 91 16 3c 06 5a 52 bc
       0.011341101 0.008297028 0.009189936 -0.012838846
0002b0 45 15 ab 3a da ce 39 bd cb fc e6 3d 11 ef 6c 3b
       0.0013052603 -0.045363285 0.11278685 0.0036153237
0002c0 f3 cf ed 3d 34 ad 54 b9 b8 74 06 3c a4 43 2b 3d
       0.11611929 -0.00020282419 0.008206539 0.041812554
0002d0 1f b9 12 bd c7 8c c1 3d 3d 47 a4 3d 34 ac 2f bd
       -0.035821076 0.09450679 0.080214 -0.042888835
0002e0 79 01 44 3c 8d bc d7 3b 43 59 c6 bc ac 77 2e bd
       0.011963242 0.0065837563 -0.024212485 -0.042594597
0002f0 a5 3f 2c bd 9b f8 55 bd aa c6 2c bd 36 13 02 3d
       -0.042052884 -0.05223904 -0.04218165 0.031756602
000300 92 b6 ca bc 60 11 43 bd c5 cc f4 bc ef b0 62 bd
       -0.02474526 -0.047623992 -0.029882798 -0.05534452
000310 b5 da 28 bc 7f 6e 0e 3d f0 4d 8e bc 9e 8b 42 bd
       -0.01030605 0.034773346 -0.017371148 -0.04749643
000320 d2 49 69 3d f9 b2 21 bd 07 70 73 3d a7 33 06 3d
       0.056955166 -0.039477322 0.05943301 0.032764103
000330 00 71 58 3a a4 cb 4d bd eb de ab 3c cf 5c 15 3e
       0.00082565844 -0.050243035 0.020980319 0.14586185
000340 59 fb c0 3d 7a bd d9 3c d0 44 03 bb 3f 8d 01 bd
       0.09422941 0.026579607 -0.002003003 -0.031628843
000350 7a 31 0c bd e1 2e 02 bd fc 95 0b 3e 8b 2d a1 bd
       -0.034226872 -0.03178299 0.13631433 -0.07870015
000360 ad 95 1a bc 12 44 16 3d b8 03 46 3d 0e c2 36 3c
       -0.0094351 0.03668601 0.04834339 0.011154665
000370 fb 10 66 3d cd fb 12 3e 1d 34 8a bc 13 0c 68 bd
       0.056168538 0.14353867 -0.016870553 -0.05665214
000380 2a 56 3b 3d 12 96 c3 bc f1 cd 15 bd c2 ca 48 bc
       0.04573647 -0.02387527 -0.036573354 -0.0122553725
000390 d6 17 2f bd c3 08 0f 3d 79 64 8f 3d 51 73 9f bd
       -0.04274734 0.034920465 0.070015855 -0.07785667
0003a0 d7 b3 17 3d 33 ae 27 3d 8c 14 90 bc b2 b9 8a bc
       0.037036743 0.040937614 -0.017587923 -0.01693425
0003b0 54 20 44 b9 6d d7 80 3d 64 23 05 bd 37 3d 41 3c
       -0.0001870406 0.06291089 -0.032504454 0.01179438
0003c0 62 ef 62 3d 85 43 cb 3c 95 2c 50 bc 90 a1 0c bd
       0.055404074 0.02481247 -0.012705942 -0.034333766
0003d0 0b 39 1a 3b c0 fd fd 3c 40 3e 21 3e 94 80 ae 3d
       0.0023532535 0.031004786 0.15746403 0.08520618
0003e0 45 e2 0d 3e 82 8b 92 3d 06 c5 19 3d aa 87 b9 bb
       0.13855846 0.07155515 0.03754141 -0.0056619244
0003f0 a3 9a ed bc c5 28 11 3d eb b9 4c 3c d7 e5 4f 3d
       -0.0290044 0.03543927 0.012495498 0.0507563

bias f4 [500]
000000 60 3d b4 3c 80 3b 02 ba 5c 3a a7 3c 0b 30 9e 3d
       0.022001922 -0.00049679726 0.02041357 0.07724007
000010 51 b6 c0 3d eb 30 55 3d 60 d3 90 3b 9f ac b4 bb
       0.09409774 0.052048605 0.004419729 -0.005513742
000020 78 69 f9 3b 32 8a ad 3d dd e9 fe 3d 41 72 14 bd
       0.00761145 0.08473624 0.1244695 -0.036241774
000030 f4 f9 ab 3c 35 7e 6c bc ae d2 82 bd 93 52 c6 3d
       0.02099321 -0.014434387 -0.0638784 0.096837185
000040 78 8c aa 3d 92 43 10 3d 4c d7 d2 3d f5 85 a1 3d
       0.083275735 0.03522069 0.10294971 0.078868784
000050 04 d6 c2 3d 56 ea b7 3d 65 a1 8f 3d 9d b5 2a 3d
       0.095134765 0.08980243 0.070132054 0.041677106
000060 e9 78 8b 3d a7 6f d0 3d b1 f3 13 3d db 36 9c bc
       0.06810171 0.10177546 0.036121074 -0.019069126
000070 69 52 0c 3e e3 8e b5 3d ac 49 9b 3d f6 47 c6 3c
       0.13703312 0.08865144 0.07582411 0.024204236
000080 37 a5 44 bd fe 3a ad 3d f9 d3 0b bd 9a d4 54 bd
       -0.048009124 0.084585175 -0.0341377 -0.051960565
000090 36 1c dc 3c 11 3f 30 bd 0c e8 be 3d 47 b3 39 3d
       0.02686892 -0.043028895 0.09321603 0.045336988
0000a0 19 03 b1 3b ea 2f d2 3d 05 47 d7 3c ef 02 68 3d
       0.0054019806 0.10263045 0.026278982 0.056643423
0000b0 b2 f4 c1 3d ab 1e f0 3d 6f 05 02 3d 66 30 a4 bc
       0.094705 0.117245995 0.031743463 -0.02004261
0000c0 d5 a6 ab bb d2 42 41 bc 75 bd 2a 3b b4 b0 14 3c
       -0.005238394 -0.011795716 0.0026052867 0.009075332
0000d0 1d 75 45 3d 59 9c 40 bc db 6d cb 3d e0 88 86 3d
       0.04820739 -0.011756026 0.09933063 0.065690756
0000e0 e3 95 8e bc 50 6f 95 3d 18 3f 32 3d ee 4f e2 bb
       -0.017405456 0.07296622 0.043517202 -0.006906501
0000f0 1d 86 8b 3c f8 66 13 3e 9f c7 81 bc b6 96 da 3d
       0.017031724 0.14394748 -0.015842257 0.10673277
000100 43 bc c0 bc b2 59 e0 bc 36 02 3f 3c 9c b3 da 3c
       -0.02352727 -0.02738652 0.011658242 0.026696973
000110 7f 8c db 3d 97 8a 0f bd 66 10 d7 3c db cf 15 bd
       0.10720157 -0.03504428 0.026252937 -0.03657518
000120 f9 47 ef 3d d1 ce 7a 3d 16 35 0e 3d 4c f2 d2 3c
       0.116836496 0.06123239 0.034718595 0.025750302
000130 b2 7c dc 3c e6 88 d8 ba 00 b1 a4 3c 15 77 00 3d
       0.026914928 -0.0016520291 0.020103931 0.031363565
000140 4e 8d 15 3d b5 7f 33 3d 68 5b 1c 3d 92 66 32 3d
       0.03651171 0.043822963 0.03817311 0.04355485
000150 fd 06 d7 3d a7 0d 54 3d cb 92 01 bc a6 f5 25 3d
       0.1049938 0.051770832 -0.007908533 0.04051747
000160 a6 9c 23 3e 01 0e 1f 3d a2 72 41 3d c4 24 85 3d
       0.15977725 0.038831715 0.047228463 0.06501153
000170 1f f7 f4 3d f7 c2 29 3d 99 92 c5 39 27 ca 5c 3c
       0.11961197 0.0414457 0.00037683992 0.013475931
000180 9e 95 8f 3d 8c b5 96 bc 86 34 6a 3d c8 66 ba 3d
       0.07010959 -0.018397115 0.057178997 0.09101635
000190 5d eb 87 3d 18 fb b9 3d f6 2f 6f 3d 6d c9 de 3c
       0.06636689 0.090810955 0.05839535 0.027195657
0001a0 a6 3a ae bc 92 56 a8 3d ff 50 28 bd 83 14 d4 3b
       -0.0212682 0.08219637 -0.04109287 0.0064721717
0001b0 42 c5 f1 3b f8 e5 49 3d 00 29 c9 bb 10 61 86 bc
       0.0073782513 0.04929158 -0.006138921 -0.016403705
0001c0 c4 2c f1 3d 59 05 aa 3c 9b d2 cb bb 88 f5 14 3e
       0.117761165 0.020754503 -0.0062201745 0.14546788
0001d0 bd 05 5c 3e c0 4c 6d 3d 2c 36 51 3d 13 f7 11 3d
       0.21486564 0.057934523 0.051077053 0.03563602
0001e0 45 fc 32 3b 43 48 8b 3d ce 87 85 3d b7 44 31 3d
       0.002731101 0.06800892 0.06520043 0.043278422
0001f0 be 8d f6 3d 31 12 9a 3d d2 34 74 3a 0a a8 e1 3d
       0.12038754 0.07523001 0.0009315732 0.11018379
000200 e7 59 cc 3d 6e af ad 3d 85 57 e7 3b 34 c6 78 3b
       0.09978085 0.08480726 0.0070599937 0.0037959935
000210 b6 11 93 3d 5f e9 92 bd e7 8c 2c bc fc 66 9b 3c
       0.071811125 -0.07173418 -0.010531641 0.018970005
000220 a8 0e 9e 3d 2f 05 f3 3c 80 14 8c bc 24 f4 a0 3d
       0.07717639 0.029665558 -0.017099619 0.07859066
000230 c2 31 06 3b c4 d6 8d 3d 80 ff 08 3d c9 b7 0c 3d
       0.0020476435 0.06925729 0.03344679 0.03435496
000240 4b dd d8 3c ac dc 13 3d 74 c9 2b 3d dc cb c9 3c
       0.026472708 0.03609912 0.041940168 0.02463334
000250 5f 73 8d bd a0 81 45 3d af 1a b1 bc 02 57 98 3d
       -0.06906771 0.048219323 -0.021619169 0.074384704
000260 e8 b9 fe 3c 39 0c 22 3d 4a 46 bb 3d 92 c2 60 3d
       0.031094506 0.039562438 0.09144266 0.054873057
000270 04 39 63 3d af 7e 96 3d 01 3c 09 3c c4 c6 a9 bc
       0.055474296 0.07348382 0.008376122 -0.020724662
000280 42 f5 87 3d de 9e 86 3d 3b ce ad 3c b3 96 86 3d
       0.06638576 0.0657327 0.021216502 0.06571712
000290 b9 0a d3 3d 40 19 ee 3c dc 2e 0f 3d ae d0 c7 3d
       0.103047796 0.029064775 0.034956798 0.09756599
0002a0 d6 a3 56 3d a3 1f 4d 3d 29 56 6e 3c 02 d5 b0 3d
       0.05240234 0.050079 0.014546909 0.08634378
0002b0 1d c2 dc 3c 34 2c 50 bc 73 0a 9c 3b c1 37 38 3d
       0.02694803 -0.012705851 0.004761988 0.044975046
0002c0 e0 95 dd 3d 81 34 c2 3d 20 9b 98 3d 57 d5 a0 3d
       0.10819602 0.094826706 0.07451463 0.07853191
0002d0 96 40 b8 bc 5b ec ef bc 80 c7 cd 3d ee c7 78 3d
       -0.022491734 -0.029287508 0.10047817 0.060737543
0002e0 c4 6d a2 3d 22 1a d0 3c 8a 58 47 3d 48 b9 a4 3d
       0.079310924 0.025403086 0.04866842 0.08043152
0002f0 35 38 b0 3c 4d c3 60 3d da 05 08 3e 92 8d c4 3b
       0.021511177 0.054873753 0.13283482 0.005998322
000300 78 d0 03 bd 7b f9 0b 3e 9e 6c 14 3d 30 92 bf 3d
       -0.032181233 0.13669388 0.036236398 0.09354055
000310 e2 5f a5 3d cb c1 41 bd fe 12 0f bd 61 5d d8 3d
       0.08074929 -0.047303956 -0.03493022 0.105646856
000320 31 c0 ea 3c bf 20 0c 3d a0 ab 37 3c e2 9f c2 3c
       0.028656097 0.034210917 0.011210352 0.023757879
000330 15 40 72 bd e9 79 d2 3d a9 1d 72 3d 71 b3 10 bd
       -0.059143145 0.10277159 0.059110317 -0.03532738
000340 f9 68 bc 3d ca 56 88 3d 87 b7 ff 3d 32 1b d1 3d
       0.091997094 0.06657179 0.12486177 0.10210265
000350 18 dd a1 3b 75 13 08 3e de c1 d5 3c 17 91 d7 3d
       0.0049396865 0.13288672 0.02609342 0.105257206
000360 04 d6 1c 3d 44 5c 8a bc 16 36 2c 3d ac 66 dc bc
       0.03829004 -0.016889699 0.042043768 -0.026904427
000370 6a c7 64 3d b9 2e ff 3c ce 6b a7 bc 3d bc a8 bc
       0.05585424 0.031150209 -0.020437147 -0.020597572
000380 ce 38 5d 3d 3f 92 85 3c a2 3c ff 3d b3 55 e6 3d
       0.05400925 0.016305087 0.12462737 0.112468146
000390 19 7b be 3d 89 c3 1b bd 70 96 16 3e 35 fa 1f 3c
       0.09300823 -0.038028274 0.14705825 0.009764244
0003a0 f5 31 08 3d 6f 32 11 3e 50 40 03 3d 03 fc b0 3d
       0.033250768 0.14179395 0.032043755 0.086418174
0003b0 82 49 8c 3d 1a 60 94 bc 58 e0 35 3d d7 6f 37 bc
       0.06849958 -0.018112231 0.044403404 -0.011196098
0003c0 e8 7f 56 bc 4b e8 b9 3c c3 d7 de 3c 9f f6 44 3d
       -0.013092019 0.022693774 0.027202493 0.04808676
0003d0 42 7b 5d bd 04 52 ef 3d 0f 18 33 bc d7 16 bf bc
       -0.054072626 0.11685565 -0.010931029 -0.02332632
0003e0 37 90 61 3d ed 85 95 bd 2a d1 8c 3d c0 3a be bb
       0.055069175 -0.07300935 0.068758324 -0.0058053434
0003f0 d6 a9 2a bc c4 a4 bb 3d b2 49 1f 3c ac 88 6e 3d
       -0.010416469 0.09162286 0.00972216 0.05823581

weight f4 [6, 500]
000000 44 77 1d 3e 71 52 a8 be 65 c2 06 3c 30 9d 78 3e
       0.15377527 -0.32875398 0.008225058 0.24278712
000010 55 a3 1c 3e 2b f9 9f bd bc ff 5d 3d 13 da 50 bd
       0.15296681 -0.07811197 0.054198965 -0.05098922
000020 8a e1 84 be 70 88 a8 bd f1 f9 c8 be 8a d3 85 bd
       -0.25953323 -0.082291484 -0.3925319 -0.065344885
000030 51 10 d3 bd 46 0a b5 3d 16 14 40 bc 43 80 2c 3e
       -0.103058465 0.0883985 -0.011723539 0.16845803
000040 fb 20 86 bd 59 80 4f be 23 88 25 be 58 a1 1f be
       -0.06549259 -0.20263804 -0.16165213 -0.15588892
000050 97 d0 b7 bd 6d 1a 35 3e 9d f4 86 3e 8f 9a 48 3d
       -0.08975332 0.17685862 0.263585 0.048975524
000060 80 6f 29 3d c1 56 89 be 93 ee 4d 3e 98 d8 4b bd
       0.0413661 -0.26824 0.2011054 -0.049767107
000070 6c 22 d7 3d 8f 39 5e 3d 13 71 64 be f7 51 42 bd
       0.10504612 0.05425411 -0.2230876 -0.04744145
000080 2c b6 1c 3e 98 2a 67 bc b5 9e 34 be 7c f9 13 3d
       0.15303868 -0.014109276 -0.17638667 0.0361266
000090 28 46 84 bd f9 db 79 3e 9b 83 40 3e 3e de d4 bd
       -0.06458694 0.24400319 0.18800204 -0.10393952
0000a0 cc af 18 bc 7b 3e 4b 3e 89 1f 51 3e c5 b5 08 3e
       -0.009319257 0.19848053 0.20422186 0.1335059
0000b0 60 be d3 bd ac 01 24 3e 8d b8 1f 3e ac 26 66 3e
       -0.103390455 0.16016263 0.15597744 0.2247569
0000c0 88 06 30 3c be b7 8e be 54 07 e8 bc 87 99 e6 bc
       0.010743745 -0.2787456 -0.028323807 -0.02814938
0000d0 41 fc 2b bd 63 33 a0 bc 7d 29 6a bb cc 7d 2c 3e
       -0.041988615 -0.019555753 -0.0035730295 0.16844863
0000e0 7f 26 e3 bd a4 88 72 bc 31 cc 0a 3d 52 e5 5c be
       -0.11091327 -0.0148030855 0.03388614 -0.21571854
0000f0 bb 0c 26 3e aa 5c 01 3e 69 1e 49 3e a9 1f 29 3e
       0.16215794 0.12633005 0.19640507 0.16515984
000100 ef 9c 4e bd 5d 0f 2c bc 22 e7 90 be 48 e2 61 bc
       -0.050442632 -0.01050171 -0.2830134 -0.01378686
000110 8d 03 71 be 67 65 27 bd bc ce 12 3e fd ab 08 3a
       -0.23536511 -0.04086819 0.14336675 0.00052136165
000120 dc b3 9d be 2a ed 10 3e 40 b2 0f 3e 61 2d 54 bd
       -0.30801284 0.14152971 0.1403284 -0.05180109
000130 d3 ec 42 3e af 8f 6d bd 11 f7 21 3e 78 15 e8 3d
       0.19035654 -0.057998355 0.15816905 0.1133222
000140 02 39 4a 3e 07 2a b4 3c a4 6e aa be 6b f0 51 be
       0.19748309 0.021992696 -0.33287537 -0.20501868
000150 67 88 2a 3e 7e fb 8b 3c 23 dd 2d 3e ba 99 d5 bd
       0.16653596 0.017087694 0.16978888 -0.10429712
000160 11 ed a3 be 93 41 17 be 36 5f 42 be 73 ac e7 bd
       -0.32016805 -0.14771108 -0.18981633 -0.11312189
000170 b4 bd a5 bd 13 71 c7 3a d8 7e 16 be a3 05 a1 bd
       -0.080928236 0.0015216194 -0.14696825 -0.07862403
000180 16 ab 65 be 9c c2 55 be a3 94 d6 bd 17 ac 38 3d
       -0.22428545 -0.20875019 -0.10477569 0.045085993
000190 62 a4 63 3e 30 30 c7 bc 4a 85 1a bd ec 84 8a bd
       0.22230676 -0.02431497 -0.03772477 -0.06763634
0001a0 e7 86 12 3e 80 ac 4b 3e 3f 47 7d bd b7 b9 10 3e
       0.14309274 0.19890022 -0.061835524 0.14133345
0001b0 b0 9b cd 3d a1 bf 38 be 7f 9e 07 bb c9 4c 11 bd
       0.10039461 -0.1804185 -0.0020693836 -0.03547362
0001c0 8c 08 c9 3d 6c 2a a1 3e 76 cd 31 3c fc 07 8e 3e
       0.09816083 0.31477678 0.010852208 0.27740467
0001d0 24 c2 da 3d 57 ab 55 bd 98 f5 55 bd d7 20 95 bd
       0.10681561 -0.052165356 -0.05223617 -0.07281654
0001e0 f4 b6 e1 3d 1c b8 6f be 1b 51 68 3d 38 d6 23 3e
       0.11021224 -0.23410076 0.056717973 0.15999687
0001f0 ba 1a 91 be 1b e9 12 be 0e 6d 93 bd 64 c2 1b be
       -0.28340703 -0.14346735 -0.07198535 -0.15210873
000200 4d f7 30 3d 99 1d 13 3e 64 33 b6 bc 59 f6 7a 3e
       0.043204594 0.1436676 -0.022241302 0.24508037
000210 41 31 d0 3e 56 f6 03 be ee 8e af bd 21 c9 bd bc
       0.40662578 -0.12886938 -0.085721835 -0.023167195
000220 3b 69 bb 3d 42 b7 a6 3e c0 40 1a bd 0b 10 11 3e
       0.091509305 0.3256169 -0.037659407 0.14166276
000230 b1 ae 8d bd c3 2a b5 bc 88 55 62 3e 56 1e 48 be
       -0.06918085 -0.022115117 0.2210294 -0.19542822
000240 e0 b2 60 be 0c fc a9 3d 99 30 66 3e 7a 8c 60 3d
       -0.21943235 0.08300027 0.22479476 0.05482147
000250 2d 7e 32 be 38 1f e0 3e 7a 2b 2f bd 09 4c 49 bd
       -0.17430945 0.43773818 -0.04276607 -0.04914478
000260 b0 58 38 3b bb f0 7b bd 1f d8 05 3e fa 7f 5a 3d
       0.0028129034 -0.061508875 0.13070725 0.053344704
000270 9c 01 71 be fe 6c b9 bd eb 20 8d 3c 94 ba 72 3e
       -0.2353577 -0.09053992 0.01722761 0.23703986
000280 46 f0 31 bd 22 da cf bd 6c c5 75 be a6 42 25 bd
       -0.043442033 -0.101490274 -0.24001092 -0.040346764
000290 14 ad c0 bc 4e 86 5a bd aa 22 12 3e 27 17 79 3e
       -0.02352003 -0.05335074 0.14271036 0.24325238
0002a0 98 30 0e 3d c1 94 65 be 9a 6c af 3d fe 50 40 3e
       0.03471431 -0.22420026 0.08565636 0.18780896
0002b0 a6 92 72 3d 57 71 1a bd d6 4d 8a 3e ea 4d 0a be
       0.059221886 -0.037705746 0.2701251 -0.13506284
0002c0 2e 87 25 3d ff 25 62 3e 80 9f d9 3d f5 d8 88 bd
       0.04041212 0.22084807 0.10626125 -0.06682006
0002d0 fe 76 89 3d 1c 91 51 3d 0a f4 36 be 7b 66 09 bd
       0.06712149 0.051163778 -0.17866531 -0.033545
0002e0 65 f4 b0 bd 6e bf 5f 3c eb dc a0 3e 1e f3 92 3d
       -0.086403646 0.01365648 0.31418547 0.07175277
0002f0 4e a4 8d bc 86 7c 2f bd 27 54 45 be 6b ce 8c bc
       -0.01729026 -0.042843364 -0.19270383 -0.017188272
000300 2b d2 46 bc 2a 75 5b bd 07 49 9d 3e 03 c8 fe 3d
       -0.012135069 -0.053578533 0.30719778 0.12440493
000310 92 90 5f bd 8c 60 4a bc 3a db aa 3d a6 f3 2a 3c
       -0.054581232 -0.01235212 0.083425954 0.010434067
000320 86 12 3a bd c3 6c c6 3c 23 2a 5c 3e db 99 f8 3c
       -0.04542782 0.024221784 0.21500449 0.030346802
000330 2f 7f 84 3e 93 ef 71 bd 60 64 b3 bd b2 c7 03 bd
       0.25878283 -0.059066366 -0.087593794 -0.032172866
000340 78 2f 08 be 47 a2 e0 3d 53 f7 8e be 14 43 92 3d
       -0.13299358 0.10968452 -0.27923068 0.071417004
000350 56 6f 2c bd 4b a5 ea 3c d9 b1 04 3d fc 62 34 3e
       -0.042098366 0.028643271 0.03239617 0.17615885
000360 61 7e 43 bd bf c9 01 be 0c a5 82 3e ed da 52 bd
       -0.047727946 -0.12674616 0.25516546 -0.051478315
000370 b7 3f 7b 3d ac 4d 82 be b5 12 a2 bd 61 f3 51 bd
       0.06134006 -0.25449884 -0.07913724 -0.051257495
000380 1c f9 8c 3c 81 f6 7b bd d9 14 04 3e c2 84 30 3e
       0.017208628 -0.06151438 0.12898578 0.17238143
000390 af 32 85 bd 7f 9d 08 bc 08 5b 0d 3e 34 55 6b bd
       -0.06503808 -0.008338331 0.13804257 -0.057454303
0003a0 08 e3 17 bd 58 8d 14 be d8 64 55 be ae 46 d3 bd
       -0.03708175 -0.14507043 -0.2083925 -0.103162155
0003b0 ea d6 a5 be 69 a1 98 3d 7d 10 3e be 68 80 8c be
       -0.3239053 0.074526615 -0.18560977 -0.27441716
0003c0 0b b8 d6 bd e7 c7 2b 3d 60 2e 02 3e 94 47 a3 be
       -0.10484322 0.04193869 0.12713003 -0.31890547
0003d0 a0 cf 88 bd 20 28 b3 3d 3e b2 1c 3e 3c 92 41 3d
       -0.06680226 0.087478876 0.15302369 0.0472586
0003e0 14 d3 c5 3c 9c 6e 8b be 4f 3d 7f 3e ec fc 80 be
       0.024148501 -0.27232826 0.24925731 -0.25192964
0003f0 86 9b 41 3e 81 61 f8 3d 82 0f 2c bd 63 63 8e bd
       0.18906984 0.121279724 -0.042006977 -0.0695255

bias f4 [6]
000000 03 39 82 3c 7c 3d 01 3f 20 79 16 3e 2a 1e ff be
       0.015896326 0.5048444 0.14694643 -0.498277
000010 93 ab 37 bd 0e c8 8a bd
       -0.04484136 -0.06776439
